…
2021-07-07 17:46:48.488950: I tensorflow/core/common_runtime/gpu/gpu_device.cc:1406] Created TensorFlow device (/job:localhost/replica:0/task:0/device:GPU:1 with 11279 MB memory) -> physical GPU (device: 1, name: NVIDIA GeForce GTX TITAN X, pci bus id: 0000:85:00.0, compute capability: 5.2)
Model: "model"
__________________________________________________________________________________________________
Layer (type)                    Output Shape         Param #     Connected to                     
==================================================================================================
sequence (InputLayer)           [(None, 2114, 4)]    0                                            
__________________________________________________________________________________________________
1st_conv (Conv1D)               (None, 2094, 64)     5440        sequence[0][0]                   
__________________________________________________________________________________________________
dil_conv_1 (Conv1D)             (None, 2090, 64)     12352       1st_conv[0][0]                   
__________________________________________________________________________________________________
crop_1st_conv (Cropping1D)      (None, 2090, 64)     0           1st_conv[0][0]                   
__________________________________________________________________________________________________
add_1 (Add)                     (None, 2090, 64)     0           crop_1st_conv[0][0]              
                                                                 dil_conv_1[0][0]                 
__________________________________________________________________________________________________
crop_dil_conv_1 (Cropping1D)    (None, 2082, 64)     0           dil_conv_1[0][0]                 
__________________________________________________________________________________________________
dil_conv_2 (Conv1D)             (None, 2082, 64)     12352       add_1[0][0]                      
__________________________________________________________________________________________________
add_2 (Add)                     (None, 2082, 64)     0           crop_dil_conv_1[0][0]            
                                                                 dil_conv_2[0][0]                 
__________________________________________________________________________________________________
dil_conv_3 (Conv1D)             (None, 2066, 64)     12352       add_2[0][0]                      
__________________________________________________________________________________________________
crop_dil_conv_2 (Cropping1D)    (None, 2066, 64)     0           dil_conv_2[0][0]                 
__________________________________________________________________________________________________
add_3 (Add)                     (None, 2066, 64)     0           crop_dil_conv_2[0][0]            
                                                                 dil_conv_3[0][0]                 
__________________________________________________________________________________________________
crop_dil_conv_3 (Cropping1D)    (None, 2034, 64)     0           dil_conv_3[0][0]                 
__________________________________________________________________________________________________
dil_conv_4 (Conv1D)             (None, 2034, 64)     12352       add_3[0][0]                      
__________________________________________________________________________________________________
add_4 (Add)                     (None, 2034, 64)     0           crop_dil_conv_3[0][0]            
                                                                 dil_conv_4[0][0]                 
__________________________________________________________________________________________________
dil_conv_5 (Conv1D)             (None, 1970, 64)     12352       add_4[0][0]                      
__________________________________________________________________________________________________
crop_dil_conv_4 (Cropping1D)    (None, 1970, 64)     0           dil_conv_4[0][0]                 
__________________________________________________________________________________________________
add_5 (Add)                     (None, 1970, 64)     0           crop_dil_conv_4[0][0]            
                                                                 dil_conv_5[0][0]                 
__________________________________________________________________________________________________
crop_dil_conv_5 (Cropping1D)    (None, 1842, 64)     0           dil_conv_5[0][0]                 
__________________________________________________________________________________________________
dil_conv_6 (Conv1D)             (None, 1842, 64)     12352       add_5[0][0]                      
__________________________________________________________________________________________________
add_6 (Add)                     (None, 1842, 64)     0           crop_dil_conv_5[0][0]            
                                                                 dil_conv_6[0][0]                 
__________________________________________________________________________________________________
dil_conv_7 (Conv1D)             (None, 1586, 64)     12352       add_6[0][0]                      
__________________________________________________________________________________________________
crop_dil_conv_6 (Cropping1D)    (None, 1586, 64)     0           dil_conv_6[0][0]                 
__________________________________________________________________________________________________
add_7 (Add)                     (None, 1586, 64)     0           crop_dil_conv_6[0][0]            
                                                                 dil_conv_7[0][0]                 
__________________________________________________________________________________________________
crop_dil_conv_7 (Cropping1D)    (None, 1074, 64)     0           dil_conv_7[0][0]                 
__________________________________________________________________________________________________
dil_conv_8 (Conv1D)             (None, 1074, 64)     12352       add_7[0][0]                      
__________________________________________________________________________________________________
combined_conv (Add)             (None, 1074, 64)     0           crop_dil_conv_7[0][0]            
                                                                 dil_conv_8[0][0]                 
__________________________________________________________________________________________________
profile_out_prebias (Conv1D)    (None, 1000, 1)      4801        combined_conv[0][0]              
__________________________________________________________________________________________________
prof_out_crop2match_output (Cro (None, 1000, 1)      0           profile_out_prebias[0][0]        
__________________________________________________________________________________________________
control_profile (InputLayer)    [(None, 1000, 2)]    0                                            
__________________________________________________________________________________________________
gap (GlobalAveragePooling1D)    (None, 64)           0           combined_conv[0][0]              
__________________________________________________________________________________________________
control_logcount (InputLayer)   [(None, 1)]          0                                            
__________________________________________________________________________________________________
concat_with_bias_prof (Concaten (None, 1000, 3)      0           prof_out_crop2match_output[0][0] 
                                                                 control_profile[0][0]            
__________________________________________________________________________________________________
concat_with_bias_cnts (Concaten (None, 65)           0           gap[0][0]                        
                                                                 control_logcount[0][0]           
__________________________________________________________________________________________________
profile_predictions (Conv1D)    (None, 1000, 1)      4           concat_with_bias_prof[0][0]      
__________________________________________________________________________________________________
logcount_predictions (Dense)    (None, 1)            66          concat_with_bias_cnts[0][0]      
==================================================================================================
Total params: 109,127
Trainable params: 109,127
Non-trainable params: 0
__________________________________________________________________________________________________
2021-07-07 17:46:49,033 - root - INFO - counts_loss_weight - 300.29
2021-07-07 17:46:49,061 - root - INFO - Training Epoch 1
…
